…
er Learning Algorithms for Text Classification in Legal Document Review", "source_url": "http://arxiv.org/abs/1912.09499v1", "published_at": "2019-12-19"}}
{"chunk_id": "1912.09499v1:8", "paper_id": "1912.09499v1", "text": "Token Filtering, 3. Stemming, 4. N-gram Generation, and 5. Feature Selection. Tokenization breaks up the sequence of strings (sentences) in a document into a set of smaller units, such as words, called tokens. Token Filtering removes irrelevant tokens such as stop words, numbers, short words (e.g., words with one or Layer (type) Output Shape Param # embedding_1 (Embedding) (None, 2000, 100) 2000000 dropout_1 (Dropout) (None, 2000, 100) 0 conv1d_1 (Conv1D) (None, 1999, 64) 12864 max_pooling1d_1 (MaxPooling1 (None, 1, 64) 0 flatten_1 (Flatten) (None, 64) 0 dense_1 (Dense) (None, 1) 65 two characters), and long words (e.g., words with more than 20 characters). Stemming converts words into their root forms. The N-gram Generation step generates all n-grams of a document as features to represent the document. The Feature Selection step applies a feature selection algorithm to the training documents to identify a subset of the most effective features (words or n -grams) to represent a documen", "section": null, "start_char": 8000, "end_char": 9000, "metadata": {"title": "Empirical Comparisons of CNN with Other Learning Algorithms for Text Classification in Legal Document Review", "source_url": "http://arxiv.org/abs/1912.09499v1", "published_at": "2019-12-19"}}
…
